…
I1222 07:18:15.498366  6450 net.cpp:50] Initializing net from parameters: 
name: "TVG_CRF_RNN_COCO_VOC_TRAIN_3_CLASSES"
state {
  phase: TRAIN
}
layer {
  name: "data"
  type: "Data"
  top: "data"
  include {
    phase: TRAIN
  }
  transform_param {
    mean_file: "image_mean.binaryproto"
  }
  data_param {
    source: "./train_images_3_lmdb"
    batch_size: 1
    backend: LMDB
  }
}
layer {
  name: "label"
  type: "Data"
  top: "label"
  include {
    phase: TRAIN
  }
  data_param {
    source: "./train_labels_3_lmdb"
    batch_size: 1
    backend: LMDB
  }
}
layer {
  name: "conv1_1"
  type: "Convolution"
  bottom: "data"
  top: "conv1_1"
  param {
    lr_mult: 1
    decay_mult: 1
  }
  param {
    lr_mult: 2
    decay_mult: 0
  }
  convolution_param {
    num_output: 64
    pad: 100
    kernel_size: 3
    engine: CAFFE
  }
}
layer {
  name: "relu1_1"
  type: "ReLU"
  bottom: "conv1_1"
  top: "conv1_1"
}
layer {
  name: "conv1_2"
  type: "Convolution"
  bottom: "conv1_1"
  top: "conv1_2"
  param {
    lr_mult: 1
    decay_mult: 1
  }
  param {
    lr_mult: 2
    decay_mult: 0
  }
  convolution_param {
    num_output: 64
    pad: 1
    kernel_size: 3
    engine: CAFFE
  }
}
layer {
  name: "relu1_2"
  type: "ReLU"
  bottom: "conv1_2"
  top: "conv1_2"
}
layer {
  name: "pool1"
  type: "Pooling"
  bottom: "conv1_2"
  top: "pool1"
  pooling_param {
    pool: MAX
    kernel_size: 2
    stride: 2
  }
}
layer {
  name: "conv2_1"
  type: "Convolution"
  bottom: "pool1"
  top: "conv2_1"
  param {
    lr_mult: 1
    decay_mult: 1
  }
  param {
    lr_mult: 2
    decay_mult: 0
  }
  convolution_param {
    num_output: 128
    pad: 1
    kernel_size: 3
    engine: CAFFE
  }
}
layer {
  name: "relu2_1"
  type: "ReLU"
  bottom: "conv2_1"
  top: "conv2_1"
}
layer {
  name: "conv2_2"
  type: "Convolution"
  bottom: "conv2_1"
  top: "conv2_2"
  param {
    lr_mult: 1
    decay_mult: 1
  }
  param {
    lr_mult: 2
    decay_mult: 0
  }
  convolution_param {
    num_output: 128
    pad: 1
    kernel_size: 3
    engine: CAFFE
  }
}
layer {
  name: "relu2_2"
  type: "ReLU"
  bottom: "conv2_2"
  top: "conv2_2"
}
layer {
  name: "pool2"
  type: "Pooling"
  bottom: "conv2_2"
  top: "pool2"
  pooling_param {
    pool: MAX
    kernel_size: 2
    stride: 2
  }
}
layer {
  name: "conv3_1"
  type: "Convolution"
  bottom: "pool2"
  top: "conv3_1"
  param {
    lr_mult: 1
    decay_mult: 1
  }
  param {
    lr_mult: 2
    decay_mult: 0
  }
  convolution_param {
    num_output: 256
    pad: 1
    kernel_size: 3
    engine: CAFFE
  }
}
layer {
  name: "relu3_1"
  type: "ReLU"
  bottom: "conv3_1"
  top: "conv3_1"
}
layer {
  name: "conv3_2"
  type: "Convolution"
  bottom: "conv3_1"
  top: "conv3_2"
  param {
    lr_mult: 1
    decay_mult: 1
  }
  param {
    lr_mult: 2
    decay_mult: 0
  }
  convolution_param {
    num_output: 256
    pad: 1
    kernel_size: 3
    engine: CAFFE
  }
}
layer {
  name: "relu3_2"
  type: "ReLU"
  bottom: "conv3_2"
  top: "conv3_2"
}
layer {
  name: "conv3_3"
  type: "Convolution"
  bottom: "conv3_2"
  top: "conv3_3"
  param {
    lr_mult: 1
    decay_mult: 1
  }
  param {
    lr_mult: 2
    decay_mult: 0
  }
  convolution_param {
    num_output: 256
    pad: 1
    kernel_size: 3
    engine: CAFFE
  }
}
layer {
  name: "relu3_3"
  type: "ReLU"
  bottom: "conv3_3"
  top: "conv3_3"
}
layer {
  name: "pool3"
  type: "Pooling"
  bottom: "conv3_3"
  top: "pool3"
  pooling_param {
    pool: MAX
    kernel_size: 2
    stride: 2
  }
}
layer {
  name: "conv4_1"
  type: "Convolution"
  bottom: "pool3"
  top: "conv4_1"
  param {
    lr_mult: 1
    decay_mult: 1
  }
  param {
    lr_mult: 2
    decay_mult: 0
  }
  convolution_param {
    num_output: 512
    pad: 1
    kernel_size: 3
    engine: CAFFE
  }
}
layer {
  name: "relu4_1"
  type: "ReLU"
  bottom: "conv4_1"
  top: "conv4_1"
}
layer {
  name: "conv4_2"
  type: "Convolution"
  bottom: "conv4_1"
  top: "conv4_2"
  param {
    lr_mult: 1
    decay_mult: 1
  }
  param {
    lr_mult: 2
    decay_mult: 0
  }
  convolution_param {
    num_output: 512
    pad: 1
    kernel_size: 3
    engine: CAFFE
  }
}
layer {
  name: "relu4_2"
  type: "ReLU"
  bottom: "conv4_2"
  top: "conv4_2"
}
layer {
  name: "conv4_3"
  type: "Convolution"
  bottom: "conv4_2"
  top: "conv4_3"
  param {
    lr_mult: 1
    decay_mult: 1
  }
  param {
    lr_mult: 2
    decay_mult: 0
  }
  convolution_param {
    num_output: 512
    pad: 1
    kernel_size: 3
    engine: CAFFE
  }
}
layer {
  name: "relu4_3"
  type: "ReLU"
  bottom: "conv4_3"
  top: "conv4_3"
}
layer {
  name: "pool4"
  type: "Pooling"
  bottom: "conv4_3"
  top: "pool4"
  pooling_param {
    pool: MAX
    kernel_size: 2
    stride: 2
  }
}
layer {
  name: "conv5_1"
  type: "Convolution"
  bottom: "pool4"
  top: "conv5_1"
  param {
    lr_mult: 1
    decay_mult: 1
  }
  param {
    lr_mult: 2
    decay_mult: 0
  }
  convolution_param {
    num_output: 512
    pad: 1
    kernel_size: 3
    engine: CAFFE
  }
}
layer {
  name: "relu5_1"
  type: "ReLU"
  bottom: "conv5_1"
  top: "conv5_1"
}
layer {
  name: "conv5_2"
  type: "Convolution"
  bottom: "conv5_1"
  top: "conv5_2"
  param {
    lr_mult: 1
    decay_mult: 1
  }
  param {
    lr_mult: 2
    decay_mult: 0
  }
  convolution_param {
    num_output: 512
    pad: 1
    kernel_size: 3
    engine: CAFFE
  }
}
layer {
  name: "relu5_2"
  type: "ReLU"
  bottom: "conv5_2"
  top: "conv5_2"
}
layer {
  name: "conv5_3"
  type: "Convolution"
  bottom: "conv5_2"
  top: "conv5_3"
  param {
    lr_mult: 1
    decay_mult: 1
  }
  param {
    lr_mult: 2
    decay_mult: 0
  }
  convolution_param {
    num_output: 512
    pad: 1
    kernel_size: 3
    engine: CAFFE
  }
}
layer {
  name: "relu5_3"
  type: "ReLU"
  bottom: "conv5_3"
  top: "conv5_3"
}
layer {
  name: "pool5"
  type: "Pooling"
  bottom: "conv5_3"
  top: "pool5"
  pooling_param {
    pool: MAX
    kernel_size: 2
    stride: 2
  }
}
layer {
  name: "fc6"
  type: "Convolution"
  bottom: "pool5"
  top: "fc6"
  param {
    lr_mult: 1
    decay_mult: 1
  }
  param {
    lr_mult: 2
    decay_mult: 0
  }
  convolution_param {
    num_output: 4096
    kernel_size: 7
    engine: CAFFE
  }
}
layer {
  name: "relu6"
  type: "ReLU"
  bottom: "fc6"
  top: "fc6"
}
layer {
  name: "drop6"
  type: "Dropout"
  bottom: "fc6"
  top: "fc6"
  dropout_param {
    dropout_ratio: 0.5
  }
}
layer {
  name: "fc7"
  type: "Convolution"
  bottom: "fc6"
  top: "fc7"
  param {
    lr_mult: 1
    decay_mult: 1
  }
  param {
    lr_mult: 2
    decay_mult: 0
  }
  convolution_param {
    num_output: 4096
    kernel_size: 1
    engine: CAFFE
  }
}
layer {
  name: "relu7"
  type: "ReLU"
  bottom: "fc7"
  top: "fc7"
}
layer {
  name: "drop7"
  type: "Dropout"
  bottom: "fc7"
  top: "fc7"
  dropout_param {
    dropout_ratio: 0.5
  }
}
layer {
  name: "score-fr-ft"
  type: "Convolution"
  bottom: "fc7"
  top: "score-ft"
  param {
    lr_mult: 1
    decay_mult: 1
  }
  param {
    lr_mult: 2
    decay_mult: 0
  }
  convolution_param {
    num_output: 3
    kernel_size: 1
    weight_filler {
      type: "xavier"
      std: 0.1
    }
    bias_filler {
      type: "constant"
      value: 0.2
    }
    engine: CAFFE
  }
}
layer {
  name: "score2-ft"
  type: "Deconvolution"
  bottom: "score-ft"
  top: "score2-ft"
  param {
    lr_mult: 1
    decay_mult: 1
  }
  param {
    lr_mult: 2
    decay_mult: 0
  }
  convolution_param {
    num_output: 3
    kernel_size: 4
    stride: 2
    bias_filler {
      type: "constant"
      value: 0.2
    }
  }
}
layer {
  name: "score-pool4-ft"
  type: "Convolution"
  bottom: "pool4"
  top: "score-pool4-ft"
  param {
    lr_mult: 1
    decay_mult: 1
  }
  param {
    lr_mult: 2
    decay_mult: 0
  }
  convolution_param {
    num_output: 3
    kernel_size: 1
    weight_filler {
      type: "xavier"
      std: 0.1
    }
    bias_filler {
      type: "constant"
      value: 0.2
    }
    engine: CAFFE
  }
}
layer {
  name: "crop-ft"
  type: "Crop"
  bottom: "score-pool4-ft"
  bottom: "score2-ft"
  top: "score-pool4c-ft"
}
layer {
  name: "fuse-ft"
  type: "Eltwise"
  bottom: "score2-ft"
  bottom: "score-pool4c-ft"
  top: "score-fused-ft"
  eltwise_param {
    operation: SUM
  }
}
layer {
  name: "score4-ft"
  type: "Deconvolution"
  bottom: "score-fused-ft"
  top: "score4-ft"
  param {
    lr_mult: 1
    decay_mult: 1
  }
  convolution_param {
    num_output: 3
    bias_term: false
    kernel_size: 4
    stride: 2
  }
}
layer {
  name: "score-pool3-ft"
  type: "Convolution"
  bottom: "pool3"
  top: "score-pool3-ft"
  param {
    lr_mult: 1
    decay_mult: 1
  }
  param {
    lr_mult: 2
    decay_mult: 0
  }
  convolution_param {
    num_output: 3
    kernel_size: 1
    weight_filler {
      type: "xavier"
      std: 0.1
    }
    bias_filler {
      type: "constant"
      value: 0.2
    }
    engine: CAFFE
  }
}
layer {
  name: "crop-ft"
  type: "Crop"
  bottom: "score-pool3-ft"
  bottom: "score4-ft"
  top: "score-pool3c-ft"
}
layer {
  name: "fuse-ft"
  type: "Eltwise"
  bottom: "score4-ft"
  bottom: "score-pool3c-ft"
  top: "score-final-ft"
  eltwise_param {
    operation: SUM
  }
}
layer {
  name: "upsample-ft"
  type: "Deconvolution"
  bottom: "score-final-ft"
  top: "bigscore-ft"
  param {
    lr_mult: 0
  }
  convolution_param {
    num_output: 3
    bias_term: false
    kernel_size: 16
    stride: 8
  }
}
layer {
  name: "crop-ft"
  type: "Crop"
  bottom: "bigscore-ft"
  bottom: "data"
  top: "coarse-ft"
}
layer {
  name: "splitting-ft"
  type: "Split"
  bottom: "coarse-ft"
  top: "unary-ft"
  top: "Q0-ft"
}
layer {
  name: "inference1-ft"
  type: "MultiStageMeanfield"
  bottom: "unary-ft"
  bottom: "Q0-ft"
  bottom: "data"
  top: "pred-ft"
  param {
    lr_mult: 10000
  }
  param {
    lr_mult: 10000
  }
  param {
    lr_mult: 1000
  }
  multi_stage_meanfield_param {
    compatibility_mode: POTTS
    threshold: 2
    theta_alpha: 160
    theta_beta: 3
    theta_gamma: 3
    num_iterations: 5
    spatial_filter_weight: 3
    bilateral_filter_weight: 5
  }
}
layer {
  name: "loss-ft"
  type: "SoftmaxWithLoss"
  bottom: "pred-ft"
  bottom: "label"
  top: "loss-ft"
  loss_param {
    normalize: false
  }
}
I1222 07:18:15.498633  6450 layer_factory.hpp:76] Creating layer data
I1222 07:18:15.499104  6450 net.cpp:111] Creating Layer data
I1222 07:18:15.499191  6966 db_lmdb.cpp:22] Opened lmdb ./train_images_3_lmdb
I1222 07:18:15.523478  6450 net.cpp:434] data -> data
I1222 07:18:15.523537  6450 data_transformer.cpp:23] Loading mean file from: image_mean.binaryproto
I1222 07:18:15.651166  6450 data_layer.cpp:44] output data size: 1,3,500,500
I1222 07:18:15.651561  6450 net.cpp:156] Setting up data
I1222 07:18:15.651585  6450 net.cpp:164] Top shape: 1 3 500 500 (750000)
I1222 07:18:15.651598  6450 layer_factory.hpp:76] Creating layer data_data_0_split
I1222 07:18:15.651648  6450 net.cpp:111] Creating Layer data_data_0_split
I1222 07:18:15.651655  6450 net.cpp:478] data_data_0_split <- data
I1222 07:18:15.651669  6450 net.cpp:434] data_data_0_split -> data_data_0_split_0
I1222 07:18:15.651688  6450 net.cpp:434] data_data_0_split -> data_data_0_split_1
I1222 07:18:15.651703  6450 net.cpp:434] data_data_0_split -> data_data_0_split_2
I1222 07:18:15.651721  6450 net.cpp:156] Setting up data_data_0_split
I1222 07:18:15.651732  6450 net.cpp:164] Top shape: 1 3 500 500 (750000)
I1222 07:18:15.651741  6450 net.cpp:164] Top shape: 1 3 500 500 (750000)
I1222 07:18:15.651749  6450 net.cpp:164] Top shape: 1 3 500 500 (750000)
I1222 07:18:15.651757  6450 layer_factory.hpp:76] Creating layer label
I1222 07:18:15.651819  6450 net.cpp:111] Creating Layer label
I1222 07:18:15.651836  6450 net.cpp:434] label -> label
I1222 07:18:15.651948  6970 db_lmdb.cpp:22] Opened lmdb ./train_labels_3_lmdb
I1222 07:18:15.652248  6450 data_layer.cpp:44] output data size: 1,1,500,500
I1222 07:18:15.652463  6450 net.cpp:156] Setting up label
I1222 07:18:15.652480  6450 net.cpp:164] Top shape: 1 1 500 500 (250000)
I1222 07:18:15.652489  6450 layer_factory.hpp:76] Creating layer conv1_1
I1222 07:18:15.652508  6450 net.cpp:111] Creating Layer conv1_1
I1222 07:18:15.652518  6450 net.cpp:478] conv1_1 <- data_data_0_split_0
I1222 07:18:15.652535  6450 net.cpp:434] conv1_1 -> conv1_1
I1222 07:18:15.653755  6450 net.cpp:156] Setting up conv1_1
I1222 07:18:15.653795  6450 net.cpp:164] Top shape: 1 64 698 698 (31181056)
I1222 07:18:15.653825  6450 layer_factory.hpp:76] Creating layer relu1_1
I1222 07:18:15.653844  6450 net.cpp:111] Creating Layer relu1_1
I1222 07:18:15.653852  6450 net.cpp:478] relu1_1 <- conv1_1
I1222 07:18:15.653865  6450 net.cpp:420] relu1_1 -> conv1_1 (in-place)
I1222 07:18:15.653879  6450 net.cpp:156] Setting up relu1_1
I1222 07:18:15.653890  6450 net.cpp:164] Top shape: 1 64 698 698 (31181056)
I1222 07:18:15.653898  6450 layer_factory.hpp:76] Creating layer conv1_2
I1222 07:18:15.653910  6450 net.cpp:111] Creating Layer conv1_2
I1222 07:18:15.653916  6450 net.cpp:478] conv1_2 <- conv1_1
I1222 07:18:15.653928  6450 net.cpp:434] conv1_2 -> conv1_2
I1222 07:18:15.655064  6450 net.cpp:156] Setting up conv1_2
I1222 07:18:15.655097  6450 net.cpp:164] Top shape: 1 64 698 698 (31181056)
I1222 07:18:15.655125  6450 layer_factory.hpp:76] Creating layer relu1_2
I1222 07:18:15.655143  6450 net.cpp:111] Creating Layer relu1_2
I1222 07:18:15.655154  6450 net.cpp:478] relu1_2 <- conv1_2
I1222 07:18:15.655169  6450 net.cpp:420] relu1_2 -> conv1_2 (in-place)
I1222 07:18:15.655187  6450 net.cpp:156] Setting up relu1_2
I1222 07:18:15.655208  6450 net.cpp:164] Top shape: 1 64 698 698 (31181056)
I1222 07:18:15.655216  6450 layer_factory.hpp:76] Creating layer pool1
I1222 07:18:15.655232  6450 net.cpp:111] Creating Layer pool1
I1222 07:18:15.655241  6450 net.cpp:478] pool1 <- conv1_2
I1222 07:18:15.655253  6450 net.cpp:434] pool1 -> pool1
I1222 07:18:15.655273  6450 net.cpp:156] Setting up pool1
I1222 07:18:15.655287  6450 net.cpp:164] Top shape: 1 64 349 349 (7795264)
I1222 07:18:15.655295  6450 layer_factory.hpp:76] Creating layer conv2_1
I1222 07:18:15.655316  6450 net.cpp:111] Creating Layer conv2_1
I1222 07:18:15.655328  6450 net.cpp:478] conv2_1 <- pool1
I1222 07:18:15.655344  6450 net.cpp:434] conv2_1 -> conv2_1
I1222 07:18:15.655839  6450 net.cpp:156] Setting up conv2_1
I1222 07:18:15.655858  6450 net.cpp:164] Top shape: 1 128 349 349 (15590528)
I1222 07:18:15.655882  6450 layer_factory.hpp:76] Creating layer relu2_1
I1222 07:18:15.655896  6450 net.cpp:111] Creating Layer relu2_1
I1222 07:18:15.655906  6450 net.cpp:478] relu2_1 <- conv2_1
I1222 07:18:15.655920  6450 net.cpp:420] relu2_1 -> conv2_1 (in-place)
I1222 07:18:15.655935  6450 net.cpp:156] Setting up relu2_1
I1222 07:18:15.655946  6450 net.cpp:164] Top shape: 1 128 349 349 (15590528)
I1222 07:18:15.655954  6450 layer_factory.hpp:76] Creating layer conv2_2
I1222 07:18:15.655972  6450 net.cpp:111] Creating Layer conv2_2
I1222 07:18:15.655980  6450 net.cpp:478] conv2_2 <- conv2_1
I1222 07:18:15.655993  6450 net.cpp:434] conv2_2 -> conv2_2
I1222 07:18:15.656641  6450 net.cpp:156] Setting up conv2_2
I1222 07:18:15.656687  6450 net.cpp:164] Top shape: 1 128 349 349 (15590528)
I1222 07:18:15.656719  6450 layer_factory.hpp:76] Creating layer relu2_2
I1222 07:18:15.656747  6450 net.cpp:111] Creating Layer relu2_2
I1222 07:18:15.656770  6450 net.cpp:478] relu2_2 <- conv2_2
I1222 07:18:15.656798  6450 net.cpp:420] relu2_2 -> conv2_2 (in-place)
I1222 07:18:15.656828  6450 net.cpp:156] Setting up relu2_2
I1222 07:18:15.656874  6450 net.cpp:164] Top shape: 1 128 349 349 (15590528)
I1222 07:18:15.656901  6450 layer_factory.hpp:76] Creating layer pool2
I1222 07:18:15.656940  6450 net.cpp:111] Creating Layer pool2
I1222 07:18:15.656965  6450 net.cpp:478] pool2 <- conv2_2
I1222 07:18:15.656991  6450 net.cpp:434] pool2 -> pool2
I1222 07:18:15.657023  6450 net.cpp:156] Setting up pool2
I1222 07:18:15.657048  6450 net.cpp:164] Top shape: 1 128 175 175 (3920000)
I1222 07:18:15.657073  6450 layer_factory.hpp:76] Creating layer conv3_1
I1222 07:18:15.657104  6450 net.cpp:111] Creating Layer conv3_1
I1222 07:18:15.657129  6450 net.cpp:478] conv3_1 <- pool2
I1222 07:18:15.657157  6450 net.cpp:434] conv3_1 -> conv3_1
I1222 07:18:15.658023  6450 net.cpp:156] Setting up conv3_1
I1222 07:18:15.658090  6450 net.cpp:164] Top shape: 1 256 175 175 (7840000)
I1222 07:18:15.658133  6450 layer_factory.hpp:76] Creating layer relu3_1
I1222 07:18:15.658164  6450 net.cpp:111] Creating Layer relu3_1
I1222 07:18:15.658187  6450 net.cpp:478] relu3_1 <- conv3_1
I1222 07:18:15.658217  6450 net.cpp:420] relu3_1 -> conv3_1 (in-place)
I1222 07:18:15.658258  6450 net.cpp:156] Setting up relu3_1
I1222 07:18:15.658285  6450 net.cpp:164] Top shape: 1 256 175 175 (7840000)
I1222 07:18:15.658308  6450 layer_factory.hpp:76] Creating layer conv3_2
I1222 07:18:15.658340  6450 net.cpp:111] Creating Layer conv3_2
I1222 07:18:15.658363  6450 net.cpp:478] conv3_2 <- conv3_1
I1222 07:18:15.658390  6450 net.cpp:434] conv3_2 -> conv3_2
I1222 07:18:15.659986  6450 net.cpp:156] Setting up conv3_2
I1222 07:18:15.660053  6450 net.cpp:164] Top shape: 1 256 175 175 (7840000)
I1222 07:18:15.660089  6450 layer_factory.hpp:76] Creating layer relu3_2
I1222 07:18:15.660125  6450 net.cpp:111] Creating Layer relu3_2
I1222 07:18:15.660151  6450 net.cpp:478] relu3_2 <- conv3_2
I1222 07:18:15.660178  6450 net.cpp:420] relu3_2 -> conv3_2 (in-place)
I1222 07:18:15.660208  6450 net.cpp:156] Setting up relu3_2
I1222 07:18:15.660233  6450 net.cpp:164] Top shape: 1 256 175 175 (7840000)
I1222 07:18:15.660257  6450 layer_factory.hpp:76] Creating layer conv3_3
I1222 07:18:15.660295  6450 net.cpp:111] Creating Layer conv3_3
I1222 07:18:15.660320  6450 net.cpp:478] conv3_3 <- conv3_2
I1222 07:18:15.660351  6450 net.cpp:434] conv3_3 -> conv3_3
I1222 07:18:15.661864  6450 net.cpp:156] Setting up conv3_3
I1222 07:18:15.661947  6450 net.cpp:164] Top shape: 1 256 175 175 (7840000)
I1222 07:18:15.661980  6450 layer_factory.hpp:76] Creating layer relu3_3
I1222 07:18:15.662010  6450 net.cpp:111] Creating Layer relu3_3
I1222 07:18:15.662034  6450 net.cpp:478] relu3_3 <- conv3_3
I1222 07:18:15.662065  6450 net.cpp:420] relu3_3 -> conv3_3 (in-place)
I1222 07:18:15.662094  6450 net.cpp:156] Setting up relu3_3
I1222 07:18:15.662119  6450 net.cpp:164] Top shape: 1 256 175 175 (7840000)
I1222 07:18:15.662142  6450 layer_factory.hpp:76] Creating layer pool3
I1222 07:18:15.662166  6450 net.cpp:111] Creating Layer pool3
I1222 07:18:15.662189  6450 net.cpp:478] pool3 <- conv3_3
I1222 07:18:15.662215  6450 net.cpp:434] pool3 -> pool3
I1222 07:18:15.662248  6450 net.cpp:156] Setting up pool3
I1222 07:18:15.662272  6450 net.cpp:164] Top shape: 1 256 88 88 (1982464)
I1222 07:18:15.662294  6450 layer_factory.hpp:76] Creating layer pool3_pool3_0_split
I1222 07:18:15.662320  6450 net.cpp:111] Creating Layer pool3_pool3_0_split
I1222 07:18:15.662341  6450 net.cpp:478] pool3_pool3_0_split <- pool3
I1222 07:18:15.662369  6450 net.cpp:434] pool3_pool3_0_split -> pool3_pool3_0_split_0
I1222 07:18:15.662398  6450 net.cpp:434] pool3_pool3_0_split -> pool3_pool3_0_split_1
I1222 07:18:15.662437  6450 net.cpp:156] Setting up pool3_pool3_0_split
I1222 07:18:15.662463  6450 net.cpp:164] Top shape: 1 256 88 88 (1982464)
I1222 07:18:15.662487  6450 net.cpp:164] Top shape: 1 256 88 88 (1982464)
I1222 07:18:15.662506  6450 layer_factory.hpp:76] Creating layer conv4_1
I1222 07:18:15.662531  6450 net.cpp:111] Creating Layer conv4_1
I1222 07:18:15.662550  6450 net.cpp:478] conv4_1 <- pool3_pool3_0_split_0
I1222 07:18:15.662575  6450 net.cpp:434] conv4_1 -> conv4_1
I1222 07:18:15.664202  6450 net.cpp:156] Setting up conv4_1
I1222 07:18:15.664271  6450 net.cpp:164] Top shape: 1 512 88 88 (3964928)
I1222 07:18:15.664319  6450 layer_factory.hpp:76] Creating layer relu4_1
I1222 07:18:15.664350  6450 net.cpp:111] Creating Layer relu4_1
I1222 07:18:15.664376  6450 net.cpp:478] relu4_1 <- conv4_1
I1222 07:18:15.664407  6450 net.cpp:420] relu4_1 -> conv4_1 (in-place)
I1222 07:18:15.664439  6450 net.cpp:156] Setting up relu4_1
I1222 07:18:15.664463  6450 net.cpp:164] Top shape: 1 512 88 88 (3964928)
I1222 07:18:15.664484  6450 layer_factory.hpp:76] Creating layer conv4_2
I1222 07:18:15.664512  6450 net.cpp:111] Creating Layer conv4_2
I1222 07:18:15.664535  6450 net.cpp:478] conv4_2 <- conv4_1
I1222 07:18:15.664562  6450 net.cpp:434] conv4_2 -> conv4_2
I1222 07:18:15.669895  6450 net.cpp:156] Setting up conv4_2
I1222 07:18:15.669991  6450 net.cpp:164] Top shape: 1 512 88 88 (3964928)
I1222 07:18:15.670040  6450 layer_factory.hpp:76] Creating layer relu4_2
I1222 07:18:15.670076  6450 net.cpp:111] Creating Layer relu4_2
I1222 07:18:15.670106  6450 net.cpp:478] relu4_2 <- conv4_2
I1222 07:18:15.670143  6450 net.cpp:420] relu4_2 -> conv4_2 (in-place)
I1222 07:18:15.670179  6450 net.cpp:156] Setting up relu4_2
I1222 07:18:15.670209  6450 net.cpp:164] Top shape: 1 512 88 88 (3964928)
I1222 07:18:15.670235  6450 layer_factory.hpp:76] Creating layer conv4_3
I1222 07:18:15.670267  6450 net.cpp:111] Creating Layer conv4_3
I1222 07:18:15.670295  6450 net.cpp:478] conv4_3 <- conv4_2
I1222 07:18:15.670332  6450 net.cpp:434] conv4_3 -> conv4_3
I1222 07:18:15.673912  6450 net.cpp:156] Setting up conv4_3
I1222 07:18:15.674012  6450 net.cpp:164] Top shape: 1 512 88 88 (3964928)
I1222 07:18:15.674062  6450 layer_factory.hpp:76] Creating layer relu4_3
I1222 07:18:15.674113  6450 net.cpp:111] Creating Layer relu4_3
I1222 07:18:15.674149  6450 net.cpp:478] relu4_3 <- conv4_3
I1222 07:18:15.674187  6450 net.cpp:420] relu4_3 -> conv4_3 (in-place)
I1222 07:18:15.674232  6450 net.cpp:156] Setting up relu4_3
I1222 07:18:15.674260  6450 net.cpp:164] Top shape: 1 512 88 88 (3964928)
I1222 07:18:15.674288  6450 layer_factory.hpp:76] Creating layer pool4
I1222 07:18:15.674322  6450 net.cpp:111] Creating Layer pool4
I1222 07:18:15.674350  6450 net.cpp:478] pool4 <- conv4_3
I1222 07:18:15.674382  6450 net.cpp:434] pool4 -> pool4
I1222 07:18:15.674422  6450 net.cpp:156] Setting up pool4
I1222 07:18:15.674437  6450 net.cpp:164] Top shape: 1 512 44 44 (991232)
I1222 07:18:15.674448  6450 layer_factory.hpp:76] Creating layer pool4_pool4_0_split
I1222 07:18:15.674461  6450 net.cpp:111] Creating Layer pool4_pool4_0_split
I1222 07:18:15.674469  6450 net.cpp:478] pool4_pool4_0_split <- pool4
I1222 07:18:15.674487  6450 net.cpp:434] pool4_pool4_0_split -> pool4_pool4_0_split_0
I1222 07:18:15.674504  6450 net.cpp:434] pool4_pool4_0_split -> pool4_pool4_0_split_1
I1222 07:18:15.674521  6450 net.cpp:156] Setting up pool4_pool4_0_split
I1222 07:18:15.674538  6450 net.cpp:164] Top shape: 1 512 44 44 (991232)
I1222 07:18:15.674551  6450 net.cpp:164] Top shape: 1 512 44 44 (991232)
I1222 07:18:15.674559  6450 layer_factory.hpp:76] Creating layer conv5_1
I1222 07:18:15.674573  6450 net.cpp:111] Creating Layer conv5_1
I1222 07:18:15.674583  6450 net.cpp:478] conv5_1 <- pool4_pool4_0_split_0
I1222 07:18:15.674597  6450 net.cpp:434] conv5_1 -> conv5_1
I1222 07:18:15.677373  6450 net.cpp:156] Setting up conv5_1
I1222 07:18:15.677412  6450 net.cpp:164] Top shape: 1 512 44 44 (991232)
I1222 07:18:15.677433  6450 layer_factory.hpp:76] Creating layer relu5_1
I1222 07:18:15.677450  6450 net.cpp:111] Creating Layer relu5_1
I1222 07:18:15.677462  6450 net.cpp:478] relu5_1 <- conv5_1
I1222 07:18:15.677476  6450 net.cpp:420] relu5_1 -> conv5_1 (in-place)
I1222 07:18:15.677496  6450 net.cpp:156] Setting up relu5_1
I1222 07:18:15.677510  6450 net.cpp:164] Top shape: 1 512 44 44 (991232)
I1222 07:18:15.677520  6450 layer_factory.hpp:76] Creating layer conv5_2
I1222 07:18:15.677537  6450 net.cpp:111] Creating Layer conv5_2
I1222 07:18:15.677546  6450 net.cpp:478] conv5_2 <- conv5_1
I1222 07:18:15.677561  6450 net.cpp:434] conv5_2 -> conv5_2
I1222 07:18:15.681819  6450 net.cpp:156] Setting up conv5_2
I1222 07:18:15.681860  6450 net.cpp:164] Top shape: 1 512 44 44 (991232)
I1222 07:18:15.681884  6450 layer_factory.hpp:76] Creating layer relu5_2
I1222 07:18:15.681911  6450 net.cpp:111] Creating Layer relu5_2
I1222 07:18:15.681922  6450 net.cpp:478] relu5_2 <- conv5_2
I1222 07:18:15.681937  6450 net.cpp:420] relu5_2 -> conv5_2 (in-place)
I1222 07:18:15.681955  6450 net.cpp:156] Setting up relu5_2
I1222 07:18:15.681967  6450 net.cpp:164] Top shape: 1 512 44 44 (991232)
I1222 07:18:15.681975  6450 layer_factory.hpp:76] Creating layer conv5_3
I1222 07:18:15.681993  6450 net.cpp:111] Creating Layer conv5_3
I1222 07:18:15.682001  6450 net.cpp:478] conv5_3 <- conv5_2
I1222 07:18:15.682015  6450 net.cpp:434] conv5_3 -> conv5_3
I1222 07:18:15.689966  6450 net.cpp:156] Setting up conv5_3
I1222 07:18:15.690057  6450 net.cpp:164] Top shape: 1 512 44 44 (991232)
I1222 07:18:15.690202  6450 layer_factory.hpp:76] Creating layer relu5_3
I1222 07:18:15.690270  6450 net.cpp:111] Creating Layer relu5_3
I1222 07:18:15.690285  6450 net.cpp:478] relu5_3 <- conv5_3
I1222 07:18:15.690364  6450 net.cpp:420] relu5_3 -> conv5_3 (in-place)
I1222 07:18:15.690418  6450 net.cpp:156] Setting up relu5_3
I1222 07:18:15.690431  6450 net.cpp:164] Top shape: 1 512 44 44 (991232)
I1222 07:18:15.690471  6450 layer_factory.hpp:76] Creating layer pool5
I1222 07:18:15.690546  6450 net.cpp:111] Creating Layer pool5
I1222 07:18:15.690557  6450 net.cpp:478] pool5 <- conv5_3
I1222 07:18:15.690629  6450 net.cpp:434] pool5 -> pool5
I1222 07:18:15.690680  6450 net.cpp:156] Setting up pool5
I1222 07:18:15.690693  6450 net.cpp:164] Top shape: 1 512 22 22 (247808)
I1222 07:18:15.690732  6450 layer_factory.hpp:76] Creating layer fc6
I1222 07:18:15.690805  6450 net.cpp:111] Creating Layer fc6
I1222 07:18:15.690817  6450 net.cpp:478] fc6 <- pool5
I1222 07:18:15.690891  6450 net.cpp:434] fc6 -> fc6
I1222 07:18:15.944550  6450 net.cpp:156] Setting up fc6
I1222 07:18:15.944589  6450 net.cpp:164] Top shape: 1 4096 16 16 (1048576)
I1222 07:18:15.944617  6450 layer_factory.hpp:76] Creating layer relu6
I1222 07:18:15.944641  6450 net.cpp:111] Creating Layer relu6
I1222 07:18:15.944653  6450 net.cpp:478] relu6 <- fc6
I1222 07:18:15.944671  6450 net.cpp:420] relu6 -> fc6 (in-place)
I1222 07:18:15.944691  6450 net.cpp:156] Setting up relu6
I1222 07:18:15.944703  6450 net.cpp:164] Top shape: 1 4096 16 16 (1048576)
I1222 07:18:15.944713  6450 layer_factory.hpp:76] Creating layer drop6
I1222 07:18:15.944731  6450 net.cpp:111] Creating Layer drop6
I1222 07:18:15.944742  6450 net.cpp:478] drop6 <- fc6
I1222 07:18:15.944756  6450 net.cpp:420] drop6 -> fc6 (in-place)
I1222 07:18:15.944775  6450 net.cpp:156] Setting up drop6
I1222 07:18:15.944787  6450 net.cpp:164] Top shape: 1 4096 16 16 (1048576)
I1222 07:18:15.944798  6450 layer_factory.hpp:76] Creating layer fc7
I1222 07:18:15.944813  6450 net.cpp:111] Creating Layer fc7
I1222 07:18:15.944823  6450 net.cpp:478] fc7 <- fc6
I1222 07:18:15.944838  6450 net.cpp:434] fc7 -> fc7
I1222 07:18:15.983188  6450 net.cpp:156] Setting up fc7
I1222 07:18:15.983237  6450 net.cpp:164] Top shape: 1 4096 16 16 (1048576)
I1222 07:18:15.983265  6450 layer_factory.hpp:76] Creating layer relu7
I1222 07:18:15.983290  6450 net.cpp:111] Creating Layer relu7
I1222 07:18:15.983304  6450 net.cpp:478] relu7 <- fc7
I1222 07:18:15.983321  6450 net.cpp:420] relu7 -> fc7 (in-place)
I1222 07:18:15.983340  6450 net.cpp:156] Setting up relu7
I1222 07:18:15.983353  6450 net.cpp:164] Top shape: 1 4096 16 16 (1048576)
I1222 07:18:15.983363  6450 layer_factory.hpp:76] Creating layer drop7
I1222 07:18:15.983381  6450 net.cpp:111] Creating Layer drop7
I1222 07:18:15.983393  6450 net.cpp:478] drop7 <- fc7
I1222 07:18:15.983407  6450 net.cpp:420] drop7 -> fc7 (in-place)
I1222 07:18:15.983425  6450 net.cpp:156] Setting up drop7
I1222 07:18:15.983438  6450 net.cpp:164] Top shape: 1 4096 16 16 (1048576)
I1222 07:18:15.983448  6450 layer_factory.hpp:76] Creating layer score-fr-ft
I1222 07:18:15.983464  6450 net.cpp:111] Creating Layer score-fr-ft
I1222 07:18:15.983474  6450 net.cpp:478] score-fr-ft <- fc7
I1222 07:18:15.983489  6450 net.cpp:434] score-fr-ft -> score-ft
I1222 07:18:15.983659  6450 net.cpp:156] Setting up score-fr-ft
I1222 07:18:15.983672  6450 net.cpp:164] Top shape: 1 3 16 16 (768)
I1222 07:18:15.983688  6450 layer_factory.hpp:76] Creating layer score2-ft
I1222 07:18:15.983710  6450 net.cpp:111] Creating Layer score2-ft
I1222 07:18:15.983721  6450 net.cpp:478] score2-ft <- score-ft
I1222 07:18:15.983734  6450 net.cpp:434] score2-ft -> score2-ft
I1222 07:18:15.983767  6450 net.cpp:156] Setting up score2-ft
I1222 07:18:15.983786  6450 net.cpp:164] Top shape: 1 3 34 34 (3468)
I1222 07:18:15.983819  6450 layer_factory.hpp:76] Creating layer score2-ft_score2-ft_0_split
I1222 07:18:15.983837  6450 net.cpp:111] Creating Layer score2-ft_score2-ft_0_split
I1222 07:18:15.983847  6450 net.cpp:478] score2-ft_score2-ft_0_split <- score2-ft
I1222 07:18:15.983866  6450 net.cpp:434] score2-ft_score2-ft_0_split -> score2-ft_score2-ft_0_split_0
I1222 07:18:15.983886  6450 net.cpp:434] score2-ft_score2-ft_0_split -> score2-ft_score2-ft_0_split_1
I1222 07:18:15.983911  6450 net.cpp:156] Setting up score2-ft_score2-ft_0_split
I1222 07:18:15.983927  6450 net.cpp:164] Top shape: 1 3 34 34 (3468)
I1222 07:18:15.983938  6450 net.cpp:164] Top shape: 1 3 34 34 (3468)
I1222 07:18:15.983947  6450 layer_factory.hpp:76] Creating layer score-pool4-ft
I1222 07:18:15.983963  6450 net.cpp:111] Creating Layer score-pool4-ft
I1222 07:18:15.983974  6450 net.cpp:478] score-pool4-ft <- pool4_pool4_0_split_1
I1222 07:18:15.983994  6450 net.cpp:434] score-pool4-ft -> score-pool4-ft
I1222 07:18:15.984056  6450 net.cpp:156] Setting up score-pool4-ft
I1222 07:18:15.984071  6450 net.cpp:164] Top shape: 1 3 44 44 (5808)
I1222 07:18:15.984086  6450 layer_factory.hpp:76] Creating layer crop-ft
I1222 07:18:15.984110  6450 net.cpp:111] Creating Layer crop-ft
I1222 07:18:15.984125  6450 net.cpp:478] crop-ft <- score-pool4-ft
I1222 07:18:15.984140  6450 net.cpp:478] crop-ft <- score2-ft_score2-ft_0_split_0
I1222 07:18:15.984163  6450 net.cpp:434] crop-ft -> score-pool4c-ft
I1222 07:18:15.984343  6450 net.cpp:156] Setting up crop-ft
I1222 07:18:15.984365  6450 net.cpp:164] Top shape: 1 3 34 34 (3468)
I1222 07:18:15.984378  6450 layer_factory.hpp:76] Creating layer fuse-ft
I1222 07:18:15.984418  6450 net.cpp:111] Creating Layer fuse-ft
I1222 07:18:15.984436  6450 net.cpp:478] fuse-ft <- score2-ft_score2-ft_0_split_1
I1222 07:18:15.984453  6450 net.cpp:478] fuse-ft <- score-pool4c-ft
I1222 07:18:15.984475  6450 net.cpp:434] fuse-ft -> score-fused-ft
I1222 07:18:15.984503  6450 net.cpp:156] Setting up fuse-ft
I1222 07:18:15.984519  6450 net.cpp:164] Top shape: 1 3 34 34 (3468)
I1222 07:18:15.984531  6450 layer_factory.hpp:76] Creating layer score4-ft
I1222 07:18:15.984556  6450 net.cpp:111] Creating Layer score4-ft
I1222 07:18:15.984566  6450 net.cpp:478] score4-ft <- score-fused-ft
I1222 07:18:15.984588  6450 net.cpp:434] score4-ft -> score4-ft
I1222 07:18:15.984627  6450 net.cpp:156] Setting up score4-ft
I1222 07:18:15.984647  6450 net.cpp:164] Top shape: 1 3 70 70 (14700)
I1222 07:18:15.984668  6450 layer_factory.hpp:76] Creating layer score4-ft_score4-ft_0_split
I1222 07:18:15.984696  6450 net.cpp:111] Creating Layer score4-ft_score4-ft_0_split
I1222 07:18:15.984709  6450 net.cpp:478] score4-ft_score4-ft_0_split <- score4-ft
I1222 07:18:15.984733  6450 net.cpp:434] score4-ft_score4-ft_0_split -> score4-ft_score4-ft_0_split_0
I1222 07:18:15.984767  6450 net.cpp:434] score4-ft_score4-ft_0_split -> score4-ft_score4-ft_0_split_1
I1222 07:18:15.984797  6450 net.cpp:156] Setting up score4-ft_score4-ft_0_split
I1222 07:18:15.984813  6450 net.cpp:164] Top shape: 1 3 70 70 (14700)
I1222 07:18:15.984828  6450 net.cpp:164] Top shape: 1 3 70 70 (14700)
I1222 07:18:15.984838  6450 layer_factory.hpp:76] Creating layer score-pool3-ft
I1222 07:18:15.984920  6450 net.cpp:111] Creating Layer score-pool3-ft
I1222 07:18:15.984936  6450 net.cpp:478] score-pool3-ft <- pool3_pool3_0_split_1
I1222 07:18:15.984972  6450 net.cpp:434] score-pool3-ft -> score-pool3-ft
I1222 07:18:15.985077  6450 net.cpp:156] Setting up score-pool3-ft
I1222 07:18:15.985095  6450 net.cpp:164] Top shape: 1 3 88 88 (23232)
I1222 07:18:15.985116  6450 layer_factory.hpp:76] Creating layer crop-ft
I1222 07:18:15.985137  6450 net.cpp:111] Creating Layer crop-ft
I1222 07:18:15.985149  6450 net.cpp:478] crop-ft <- score-pool3-ft
I1222 07:18:15.985167  6450 net.cpp:478] crop-ft <- score4-ft_score4-ft_0_split_0
I1222 07:18:15.985190  6450 net.cpp:434] crop-ft -> score-pool3c-ft
I1222 07:18:15.985285  6450 net.cpp:156] Setting up crop-ft
I1222 07:18:15.985299  6450 net.cpp:164] Top shape: 1 3 70 70 (14700)
I1222 07:18:15.985309  6450 layer_factory.hpp:76] Creating layer fuse-ft
I1222 07:18:15.985330  6450 net.cpp:111] Creating Layer fuse-ft
I1222 07:18:15.985342  6450 net.cpp:478] fuse-ft <- score4-ft_score4-ft_0_split_1
I1222 07:18:15.985360  6450 net.cpp:478] fuse-ft <- score-pool3c-ft
I1222 07:18:15.985376  6450 net.cpp:434] fuse-ft -> score-final-ft
I1222 07:18:15.985400  6450 net.cpp:156] Setting up fuse-ft
I1222 07:18:15.985414  6450 net.cpp:164] Top shape: 1 3 70 70 (14700)
I1222 07:18:15.985425  6450 layer_factory.hpp:76] Creating layer upsample-ft
I1222 07:18:15.985450  6450 net.cpp:111] Creating Layer upsample-ft
I1222 07:18:15.985460  6450 net.cpp:478] upsample-ft <- score-final-ft
I1222 07:18:15.985479  6450 net.cpp:434] upsample-ft -> bigscore-ft
I1222 07:18:15.985515  6450 net.cpp:156] Setting up upsample-ft
I1222 07:18:15.985536  6450 net.cpp:164] Top shape: 1 3 568 568 (967872)
I1222 07:18:15.985553  6450 layer_factory.hpp:76] Creating layer crop-ft
I1222 07:18:15.985574  6450 net.cpp:111] Creating Layer crop-ft
I1222 07:18:15.985589  6450 net.cpp:478] crop-ft <- bigscore-ft
I1222 07:18:15.985605  6450 net.cpp:478] crop-ft <- data_data_0_split_1
I1222 07:18:15.985625  6450 net.cpp:434] crop-ft -> coarse-ft
I1222 07:18:15.985765  6450 net.cpp:156] Setting up crop-ft
I1222 07:18:15.985780  6450 net.cpp:164] Top shape: 1 3 500 500 (750000)
I1222 07:18:15.985791  6450 layer_factory.hpp:76] Creating layer splitting-ft
I1222 07:18:15.985810  6450 net.cpp:111] Creating Layer splitting-ft
I1222 07:18:15.985821  6450 net.cpp:478] splitting-ft <- coarse-ft
I1222 07:18:15.985838  6450 net.cpp:434] splitting-ft -> unary-ft
I1222 07:18:15.985855  6450 net.cpp:434] splitting-ft -> Q0-ft
I1222 07:18:15.985877  6450 net.cpp:156] Setting up splitting-ft
I1222 07:18:15.985891  6450 net.cpp:164] Top shape: 1 3 500 500 (750000)
I1222 07:18:15.985906  6450 net.cpp:164] Top shape: 1 3 500 500 (750000)
I1222 07:18:15.985920  6450 layer_factory.hpp:76] Creating layer inference1-ft
I1222 07:18:15.985949  6450 net.cpp:111] Creating Layer inference1-ft
I1222 07:18:15.985960  6450 net.cpp:478] inference1-ft <- unary-ft
I1222 07:18:15.985975  6450 net.cpp:478] inference1-ft <- Q0-ft
I1222 07:18:15.985987  6450 net.cpp:478] inference1-ft <- data_data_0_split_2
I1222 07:18:15.986013  6450 net.cpp:434] inference1-ft -> pred-ft
I1222 07:18:15.986039  6450 multi_stage_meanfield.cpp:49] This implementation has not been tested batch size > 1.
I1222 07:18:16.066815  6450 multi_stage_meanfield.cpp:152] MultiStageMeanfieldLayer initialized.
I1222 07:18:16.066855  6450 net.cpp:156] Setting up inference1-ft
I1222 07:18:16.066874  6450 net.cpp:164] Top shape: 1 3 500 500 (750000)
I1222 07:18:16.066900  6450 layer_factory.hpp:76] Creating layer loss-ft
I1222 07:18:16.066920  6450 net.cpp:111] Creating Layer loss-ft
I1222 07:18:16.066933  6450 net.cpp:478] loss-ft <- pred-ft
I1222 07:18:16.066951  6450 net.cpp:478] loss-ft <- label
I1222 07:18:16.066963  6450 net.cpp:434] loss-ft -> loss-ft
I1222 07:18:16.066982  6450 layer_factory.hpp:76] Creating layer loss-ft
…
